Task_1A/task_1a_trained_model.pth (torch, 44564 bytes, 5 tensors)

weight f4 [128, 4]
0	0xbf18b34f	-0.59648603
1	0x3e338399	0.1753067
2	0x3e32f058	0.17474496
3	0xbd46e5b0	-0.04855889
4	0xbf15ec3f	-0.5856361
5	0xbea652ec	-0.3248514
6	0xbeb1b672	-0.34709507
7	0xbf0bf739	-0.54674107
8	0xbf49d07d	-0.7883375
9	0x3f140065	0.578131
10	0x3e99fa67	0.30073854
11	0xbd578104	-0.052613273
12	0xbef42ed8	-0.4769199
13	0xbe45504f	-0.19268917
14	0x3df62404	0.12018588
15	0xbeaf5bdb	-0.34249768
16	0x3c8aa865	0.016926
17	0xbdd2b361	-0.1028812
18	0xbd3c4fca	-0.04597453
19	0xbf00bc93	-0.5028774
20	0xbf3d7f09	-0.74021965
21	0xbec018ff	-0.3751907
22	0x3e1cca05	0.1531144
23	0xbf98c3f1	-1.1934797
24	0xbf0c747b	-0.54865235
25	0xbdc5db85	-0.09661011
26	0x3d899363	0.06717565
27	0xbc97b26d	-0.018517697
28	0xbe3c1d0a	-0.18370453
29	0x3e5aa20d	0.2135088
30	0xbda91aed	-0.08257089
31	0xbd8a35ef	-0.06748568
32	0xbeabc9ea	-0.33552486
33	0xbdf4a2d5	-0.1194512
34	0xbece5a51	-0.4030328
35	0xbd955025	-0.07290677
36	0x3fd9d5e7	1.7018403
37	0x3e6875a6	0.2270113
38	0x3ba58e1b	0.0050523407
39	0xbf244723	-0.64171046
40	0x3d4c2f12	0.049849577
41	0xbf134451	-0.5752612
42	0x3f0c9577	0.54915565
43	0xbdda4c02	-0.106590286
44	0xbe4893e9	-0.19587673
45	0xbe4c4eb5	-0.199519
46	0x3edfcda8	0.4371159
47	0xbdb75782	-0.08952238
48	0xbeb8942e	-0.36050552
49	0xbeb00b26	-0.34383506
50	0x3e240acc	0.16019744
51	0xbd7bca40	-0.061472178
52	0xbfd478b5	-1.6599337
53	0xbf1aa40b	-0.6040656
54	0xbd189d08	-0.03725913
55	0x3ee52615	0.44755617
56	0x3e31fb8e	0.17381117
57	0x3e5ef6e0	0.21773863
58	0xbf19b211	-0.6003733
59	0xbd11d4ad	-0.035603214
60	0xbeb0d978	-0.34540915
61	0xbe138738	-0.1440705
62	0xbee42cc0	-0.44565392
63	0xbd0171c0	-0.03160262
64	0xbf0afeb2	-0.54294884
65	0x3e73712a	0.23773637
66	0xbec3e3aa	-0.3825963
67	0xbedaf333	-0.4276367
68	0xbfc69b62	-1.5516169
69	0xbfcbf702	-1.5934756
70	0x3ec6ae72	0.38804966
71	0xbd9a8ffd	-0.07546995
72	0xbfd8faa0	-1.6951485
73	0xbffcce84	-1.9750524
74	0x3ee5f626	0.4491436
75	0x3dd3aa03	0.103351615
76	0xbe5a8bad	-0.21342345
77	0xbf3234ec	-0.69612
78	0x3e3c845c	0.18409866
79	0xbe18c6e4	-0.14919621
80	0x3e97faa5	0.29683414
81	0xbe692a52	-0.2277005
82	0xbe6bc3fc	-0.23023981
83	0xbe917638	-0.28410506
84	0xbf17c84a	-0.5928999
85	0xbef8107d	-0.4845008
86	0x3ed83e3b	0.42234978
87	0xbf04778c	-0.51744914
88	0x3f839648	1.0280237
89	0xbf1a4583	-0.60262316
90	0xbf9b5d77	-1.2137898
91	0xbd8bf84c	-0.06834468
92	0x3eb04c19	0.34433058
93	0xbe6cdd01	-0.23131181
94	0x3f2c51b5	0.67312175
95	0xbdb04ef7	-0.08608811
96	0xbf9780ee	-1.1836221
97	0xbf31c4c8	-0.6944089
98	0x3ee41ae0	0.44551754
99	0x3cfbbc8a	0.03072955
100	0xbedd2de2	-0.43199068
101	0xbebe4c4e	-0.3716759
102	0xbea1a2b3	-0.31569442
103	0x3c6b412c	0.0143588
104	0xbda36a8b	-0.07979306
105	0xbee46b49	-0.44613102
106	0x3e9a8483	0.30179223
107	0x3c92416b	0.01785346
108	0x3f54f216	0.83181894
109	0xbf118e0c	-0.5685737
110	0xbf84e49a	-1.0382264
111	0x3ccddebc	0.025130622
112	0x3dfbd50b	0.12296494
113	0xbed26de5	-0.41099468
114	0x3ebe7156	0.37195843
115	0xbe9b8fcd	-0.3038315
116	0xbf2c82c1	-0.67387015
117	0x3e256001	0.16149904
118	0xbea6e194	-0.32593977
119	0x3d95d60a	0.07316215
120	0xbf0cb7cf	-0.5496797
121	0x3e1b46d4	0.15163738
122	0xbf0d9e9d	-0.5532015
123	0xbda07686	-0.078351066
124	0xbde538a4	-0.11192444
125	0xbf70d89a	-0.9408051
126	0xbf3b5188	-0.7317128
127	0x3e0f5da7	0.1400057
128	0xbe6d8206	-0.23194131
129	0xbef0ba3e	-0.47017092
130	0x3e813b67	0.25240633
131	0xbe554c38	-0.20829856
132	0xbe627476	-0.22114739
133	0x3e5008dc	0.2031588
134	0xbf2743bf	-0.6533775
135	0xbc64d916	-0.013967773
136	0xbdec9445	-0.11551718
137	0xbf3aded9	-0.7299629
138	0x3fb114fe	1.3834531
139	0xbf082a4e	-0.5318955
140	0x3dd623f8	0.10456079
141	0xbe8ebd31	-0.27878717
142	0x3f5928a0	0.84827614
143	0xbdd3b77a	-0.1033773
144	0x3dd2dcea	0.10296042
145	0xbed9c4ea	-0.42533046
146	0x3eb843ba	0.3598917
147	0xbdd78cd7	-0.1052491
148	0x3e35fc59	0.17772044
149	0xbe7901ab	-0.24317043
150	0xbe813edb	-0.25243267
151	0xbde8d7d1	-0.11369289
152	0xbe0a5de2	-0.13512376
153	0x3d8d2a52	0.068928376
154	0x3f9cabd9	1.2239944
155	0xbfaf6eec	-1.3705726
156	0xbeeff754	-0.46868384
157	0x3e3b9428	0.18318236
158	0xbe6d2fe8	-0.23162806
159	0xbca67540	-0.020319581
160	0xbecf23d2	-0.40457016
161	0xbe624d6c	-0.22099847
162	0x3e9e2574	0.3088795
163	0x3b049d2b	0.002023528
164	0x3e393049	0.18084826
165	0xbf482b7f	-0.7819137
166	0x3ec3ec6f	0.38266322
167	0xbe3fb231	-0.18720318
168	0x3f2f8dd4	0.6857579
169	0x3e71e6fa	0.23623267
170	0xbfcd507d	-1.6040188
171	0x3ebce9b2	0.36897045
172	0xbf89e43b	-1.0772775
173	0xbfa1e209	-1.2647105
174	0xbe9472f8	-0.28993964
175	0x3e58daba	0.21177188
176	0xbeb11601	-0.345871
177	0xbec73350	-0.38906336
178	0xbcdf8c43	-0.027288562
179	0xbdf79fee	-0.12091051
180	0x3efa1e7a	0.48851377
181	0xbc9336a4	-0.01797039
182	0x3ec31b81	0.3810692
183	0xbecc4563	-0.39896688
184	0xbf8a1296	-1.0786922
185	0xbf915d17	-1.1356534
186	0xbf5f0065	-0.87109977
187	0x3ee05077	0.4381139
188	0xbe8736ba	-0.2640894
189	0xbe4d277a	-0.2003459
190	0xbe856782	-0.26055533
191	0x3da6b49a	0.08139916
192	0x3e4e9d9d	0.20177312
193	0xbeef11d9	-0.46693304
194	0x3f7f78af	0.99793524
195	0x3e5cb357	0.21552788
196	0xbf8d10ce	-1.1020753
197	0x3ed7e7f0	0.42169142
198	0xbf3cf2f1	-0.738082
199	0x3e7788ba	0.24173251
200	0x3f64a372	0.893119
201	0xbed84530	-0.42240286
202	0x3e13745a	0.14399853
203	0xbf5707a5	-0.8399604
204	0x3e6b54f4	0.22981626
205	0xbe953544	-0.291422
206	0xbebd5120	-0.36975956
207	0xbe8b013c	-0.2714938
208	0x3d46f323	0.048571717
209	0xbf5284ce	-0.82233894
210	0xbf17b0f7	-0.592544
211	0xbdfd0646	-0.12354712
212	0xbee878ba	-0.45404607
213	0xbdc90878	-0.098160684
214	0xbe399ae0	-0.18125486
215	0xbe131780	-0.14364433
216	0xbcf81bf2	-0.030286763
217	0xbeea5ee4	-0.4577552
218	0x3f080b9c	0.53142715
219	0xbe2a028e	-0.16602537
220	0xbec6b350	-0.3880868
221	0xbe385db0	-0.18004489
222	0x3d770bf0	0.06031412
223	0xbe4c4724	-0.19949013
224	0x3d8cb135	0.06869737
225	0x3c5203e0	0.012818307
226	0x3e145bde	0.1448817
227	0xbd131d3c	-0.035916552
228	0x3e97c130	0.29639578
229	0x3e3701b6	0.17871746
230	0xbf0809dc	-0.53140044
231	0xbe18fb88	-0.14939702
232	0x3f6174f4	0.8806908
233	0x3cbbc8a0	0.022922814
234	0xbcfe256d	-0.031023705
235	0xbeccfb33	-0.400354
236	0x3dd980a6	0.10620241
237	0x3cd8c673	0.026461815
238	0xbe8f78af	-0.28021762
239	0xbd85115e	-0.06497453
240	0x3f7a1cf9	0.9770046
241	0xbed0506d	-0.4068636
242	0x3e027b3e	0.12742326
243	0xbf585217	-0.8450026
244	0xbd1377d0	-0.036002934
245	0xbe5a5b5e	-0.21323916
246	0xbe9fef33	-0.31237182
247	0xbf2036cb	-0.6258361
248	0xbfae0789	-1.359605
249	0x3f522232	0.8208343
250	0xbde6a11c	-0.11261198
251	0x3cb0d119	0.02158408
252	0x3f0f239a	0.559137
253	0xbdc78c4c	-0.097435564
254	0x3f74b8ae	0.955943
255	0xbdfcdf10	-0.12347233

bias f4 [128]
0	0xbf223a38	-0.63370085
1	0x3eefb008	0.4681399
2	0xbf3d06ac	-0.73838305
3	0xbe3f5876	-0.18686089
4	0xbcbe022e	-0.023194399
5	0x3f0df2dc	0.554487
6	0xbd607f96	-0.054809175
7	0xbedb037c	-0.42776096
8	0x3ca65172	0.020302508
9	0xbe900d28	-0.28135037
10	0x3e9cb04c	0.30603254
11	0xbd84452d	-0.06458507
12	0xbef9e01e	-0.488038
13	0xbf358d20	-0.70918465
14	0xbf031faa	-0.5122019
15	0xbe1bcbc0	-0.15214443
16	0xbef46d01	-0.47739413
17	0x3f7ae2f1	0.98002535
18	0x3e92bd61	0.2866011
19	0x3f62793f	0.88466257
20	0xbecc42e4	-0.39894783
21	0x3c4fbe5d	0.0126796635
22	0x3c8fbe44	0.01754678
23	0xbee39d8f	-0.44456145
24	0xbe23b47d	-0.1598682
25	0xbde34153	-0.11096444
26	0xbed9e572	-0.42557865
27	0xbf17edee	-0.59347427
28	0xbe4a2bb6	-0.19743237
29	0xbf3c6915	-0.7359784
30	0xbe9f8f1f	-0.3116388
31	0x3caece0a	0.021338481
32	0x3f0ddb2c	0.55412555
33	0xbec305f2	-0.38090473
34	0x3f08b859	0.5340629
35	0x3ec17a0b	0.37788424
36	0xbec5dbc8	-0.38644242
37	0xbe7ad3bd	-0.24494834
38	0xbeb0cc15	-0.34530702
39	0xbeee36a6	-0.46526068
40	0xbdf9ddd1	-0.12200511
41	0x3ed70583	0.41996393
42	0xbf91f2b3	-1.1402191
43	0xbe6b5fc4	-0.2298575
44	0xbca32913	-0.019917047
45	0xbee4e377	-0.44704792
46	0xbdd201a3	-0.102542184
47	0xbefd5691	-0.49480107
48	0xbf763fc5	-0.96191055
49	0xbf69b179	-0.91286427
50	0x3e218d87	0.15776645
51	0xbee585be	-0.448286
52	0x3ea732a7	0.32655832
53	0xbd63c940	-0.05561185
54	0x3e835a15	0.25654665
55	0xbe919200	-0.28431702
56	0xbf05d0f3	-0.52271956
57	0xbf1832b1	-0.5945235
58	0xbe9c52ae	-0.3053183
59	0xbe29fbfd	-0.16600032
60	0x3e45c4b1	0.19313313
61	0xbb929439	-0.004473236
62	0xbf6b1f4b	-0.91844624
63	0xbd08ae10	-0.033369124
64	0x3f1d4ad5	0.6144231
65	0x3f00fb3f	0.5038337
66	0xbf38bbf7	-0.7216181
67	0x3e37d0dd	0.17950769
68	0xbe598e7b	-0.21245758
69	0xbe9c9f8a	-0.3059047
70	0x3c9f43ea	0.019441564
71	0xbdee9650	-0.116497636
72	0xbef0d00a	-0.4703372
73	0x3f5af2c3	0.85526675
74	0xbef45030	-0.47717428
75	0xbedf1e01	-0.4357758
76	0xbf2c7cc2	-0.67377865
77	0xbed6ec2c	-0.4197706
78	0xbce4c7af	-0.027927248
79	0xbf827115	-1.019076
80	0xbf8c1995	-1.0945307
81	0xbf239c07	-0.63909954
82	0x3b948427	0.0045323553
83	0xbec37fd4	-0.38183463
84	0xbe96a142	-0.29419905
85	0xbe1f3e76	-0.1555117
86	0xbe35b472	-0.17744616
87	0xbe91be10	-0.2846532
88	0xbeb0348a	-0.34415084
89	0xbe266dfb	-0.16252892
90	0xbf0e4a05	-0.55581695
91	0xbd7b8eda	-0.06141553
92	0x3e360005	0.17773445
93	0xbe5342a7	-0.20630895
94	0xbdc7b01b	-0.09750386
95	0xbe80032e	-0.25002426
96	0xbd17328b	-0.036913436
97	0xbef1f142	-0.47254378
98	0xbe829dbc	-0.25510967
99	0xbebfda2c	-0.3747114
100	0x3e42e29b	0.19031756
101	0xbf31acc8	-0.6940427
102	0xbefb8691	-0.49126104
103	0xbf203171	-0.6257544
104	0x3e80b120	0.25135136
105	0xbf2b23df	-0.6685161
106	0x3ef6da9e	0.48213667
107	0xbee584ae	-0.4482779
108	0xbec1d6b8	-0.3785913
109	0xbd4b338f	-0.049609717
110	0xbc6333fc	-0.0138673745
111	0x3ed9c49b	0.4253281
112	0xbe428b74	-0.1899851
113	0xbdce86c7	-0.100843005
114	0xbdc46f77	-0.09591573
115	0xbf061319	-0.5237289
116	0xbf505e25	-0.81393653
117	0xbf7806b0	-0.96885204
118	0x3e1f6fc8	0.15569985
119	0xbebf7f10	-0.37401628
120	0xbaabcfee	-0.0013108233
121	0x3f4be17b	0.7964093
122	0x3e801137	0.25013134
123	0x3e7bf27f	0.24604224
124	0xbd4bc9e1	-0.049753074
125	0xbea95a53	-0.33076724
126	0xbeefdc84	-0.46847928
127	0xbef7b6ca	-0.48381644

weight f4 [64, 128]
0	0x3c858ed0	0.01630345
1	0x3e384d65	0.17998274
2	0xbdb3f37f	-0.087866776
3	0xbc3d2b38	-0.011545949
4	0xbe685ee2	-0.22692445
5	0x3d9468e4	0.07246569
6	0xbc550db8	-0.013003759
7	0xbd1da79d	-0.038489927
8	0xbda7962c	-0.0818294
9	0xbdf41a28	-0.119190514
10	0xbe7d414c	-0.2473194
11	0xbeb3c137	-0.3510835
12	0xbd2f3e69	-0.04278413
13	0xbde3bc08	-0.111198485
14	0xbddd17a3	-0.10795524
15	0x3dab02e9	0.083501644
16	0xbe250c28	-0.16117918
17	0xbd0a99ab	-0.033837955
18	0xbd9d5b66	-0.076834485
19	0xbe280193	-0.1640685
20	0x3d2156be	0.039389364
21	0xbcd25ee8	-0.02568002
22	0xbe9cdbac	-0.30636346
23	0xbe8daede	-0.27672476
24	0xbce1dbe9	-0.027570682
25	0x3d054ddc	0.032544956
26	0x3c5cd3ec	0.0134782605
27	0xbdc26b8e	-0.09493171
28	0xbd16c282	-0.03680659
29	0xbd821171	-0.06350983
30	0xbd6099be	-0.05483412
31	0xbe82c41c	-0.25540245
32	0x3dc3307a	0.095307305
33	0xbe139e33	-0.14415817
34	0xbe58c73e	-0.21169755
35	0xbea02be7	-0.31283495
36	0xbdd93c71	-0.106072314
37	0xbe3be78e	-0.1835005
38	0xbe942c6c	-0.2894014
39	0xbaa3e140	-0.0012503043
40	0xbe928cb5	-0.28622976
41	0xbc171230	-0.009220645
42	0xbd0e607f	-0.034759995
43	0xbd6d539f	-0.057941075
44	0xbdba1f44	-0.09087995
45	0xbe13daff	-0.14439009
46	0xbe6a5a8f	-0.22886108
47	0x3dae3493	0.085061215
48	0xbe101bd5	-0.14073117
49	0xbca252a5	-0.019814799
50	0xbe0c3d46	-0.13695249
51	0xbd9645c0	-0.073375225
52	0xbeac789c	-0.33685768
53	0x3c8d02c4	0.017213233
54	0xbea2e72d	-0.31816998
55	0x3d8cf5a1	0.068827875
56	0x3d665f82	0.056243427
57	0xbe4ab78a	-0.19796577
58	0xbe1bb288	-0.15204823
59	0xbe888887	-0.26666662
60	0xbd90c762	-0.07069279
61	0xbe9d1f9e	-0.30688184
62	0xbc99c007	-0.018768324
63	0xbe374b40	-0.178998
64	0x3dae8979	0.085223146
65	0xbe8a444c	-0.2700523
66	0xb9890a3e	-0.00026138307
67	0xbd4f3c16	-0.05059441
68	0x3caa8858	0.020816967
69	0xbeb790fc	-0.35852802
70	0xbd879da5	-0.06621865
71	0x3d7afc22	0.06127561
72	0x3db222a5	0.08698014
73	0xbda28a9e	-0.079365954
74	0xbd90c180	-0.07068157
75	0x3b7ea9e0	0.0038858578
76	0xbe1115a3	-0.1416841
77	0xbcaaf834	-0.020870306
78	0xbe0014ef	-0.12507986
79	0x3cdf86a6	0.027285885
80	0xbd666966	-0.05625286
81	0xbce9b847	-0.028530253
82	0xbdfeef01	-0.1244793
83	0xbdcd8a1d	-0.10036109
84	0x3d35d5d6	0.044393383
85	0xbe240d82	-0.16020778
86	0xbe1b6930	-0.15176845
87	0x3da15612	0.07877745
88	0x3d24f822	0.0402757
89	0xbe88c7d2	-0.2671495
90	0xbe9708ab	-0.294988
91	0xbe3af678	-0.18258083
92	0xbe5d86a0	-0.21633387
93	0x3ddd3b25	0.108022965
94	0xbcd21daa	-0.02564891
95	0xbdd7651a	-0.105173305
96	0xbdab92d9	-0.08377618
97	0xbe855eda	-0.26048928
98	0xbd841c32	-0.0645069
99	0xbc9e56e0	-0.019328535
100	0xbeae49c6	-0.3404066
101	0x3c9ab82b	0.018886646
102	0xbe61387e	-0.21994206
103	0xbe6c26d3	-0.23061685
104	0xbddc4266	-0.10754852
105	0xbd9d5f5d	-0.07684205
106	0xbe41a1a7	-0.18909322
107	0xbe6d2d98	-0.23161924
108	0x3ca759ec	0.02042862
109	0xbc89c3a4	-0.016816922
110	0xbe51db5c	-0.20493835
111	0xbde16568	-0.1100567
112	0xbe0e4a9f	-0.13895653
113	0xbe591d93	-0.21202688
114	0xbe050916	-0.12991747
115	0x3c458d98	0.012057684
116	0xbe0a8fbe	-0.13531396
117	0x3cf098ab	0.029369673
118	0x3c895be8	0.016767457
119	0x3dacff55	0.08447138
120	0xbdbae95d	-0.09126542
121	0xbe4fdc51	-0.20298888
122	0x3dadb053	0.08480897
123	0xbe0803f3	-0.13282757
124	0xbd27d0bf	-0.04097056
125	0xbd088162	-0.033326514
126	0xbd991d40	-0.07476282
127	0xbe045bba	-0.12925616
128	0xbc9e5c39	-0.019331085
129	0xbdd405bc	-0.10352656
130	0xbdf9da24	-0.1219981
131	0x3d9dca70	0.077046275
132	0xbca4ee7b	-0.020133248
133	0xbcd89696	-0.026438992
134	0x3d4ca983	0.049966346
135	0x3d4afffe	0.04956054
136	0xbcb93d0e	-0.022612121
137	0x3d3bc610	0.045843184
138	0xbd8bd1e9	-0.068271466
139	0x3d3c249e	0.04593336
140	0x3cc91c2c	0.024549566
141	0xbe021c1c	-0.12706035
142	0xbdaa7603	-0.0832329
143	0x3d8ec097	0.06970327
144	0x3c9ff05c	0.019523792
145	0xbe6b3bca	-0.22972026
146	0xbc91683b	-0.017749896
147	0xbe938eb6	-0.28819817
148	0xbd9c05b5	-0.07618276
149	0xbd21c068	-0.039490134
150	0xbc838445	-0.016054282
151	0x3dccbecd	0.0999733
152	0x3d951f96	0.07281415
153	0xbd3a8f0b	-0.045546573
154	0xbda512c0	-0.08060217
155	0x3bd0c663	0.006371306
156	0xbd729371	-0.059222642
157	0x3d0a333d	0.03374027
158	0x3d0784b0	0.033085525
159	0xbe790bbf	-0.24320887
160	0x3d92b9bf	0.071643345
161	0xbd717abc	-0.05895494
162	0xbd4a9e3f	-0.04946732
163	0xbdfa2a84	-0.122151405
164	0xbd8bcf85	-0.068266906
165	0x3a96cd22	0.0011505226
166	0x3e0279d3	0.12741785
167	0xbc3b31b8	-0.011425428
168	0xbc86c7ab	-0.016452631
169	0x3dae50ed	0.08511529
170	0xbd7b4f47	-0.0613549
171	0xbdc6c1bb	-0.0970492
172	0x3d479bba	0.048732497
173	0xbd97e583	-0.07416823
174	0xbde512d9	-0.111852355
175	0xbd84efd7	-0.06491058
176	0x3d2eb3f0	0.04265207
177	0xbd89e727	-0.06733542
178	0x3c71f252	0.014767246
179	0xbd80b1a0	-0.06283879
180	0xbceaf7fc	-0.028682701
181	0x3c7e3150	0.015514687
182	0x3d9a3765	0.07530097
183	0xbd5f83da	-0.054569103
184	0xbc21c858	-0.009874426
185	0xbd449400	-0.047992706
186	0x3e135dfe	0.14391324
187	0x3d09d3ef	0.03364938
188	0x3c27c94c	0.010240864
189	0xbe3592cd	-0.17731781
190	0x3e1ead74	0.15495855
191	0xbdf225f0	-0.11823642
192	0x3bd58c4f	0.00651697
193	0xbd9b1c30	-0.07573736
194	0x3d84dcfa	0.064874604
195	0xbdf3e1c4	-0.11908296
196	0x3d4b43b9	0.049625132
197	0x3d439e94	0.047758654
198	0x3dbfa726	0.09358053
199	0x3d27d07e	0.040970318
200	0xbd2f51e9	-0.042802725
201	0xbdfe9d63	-0.12432363
202	0x3d7b0567	0.06128445
203	0x3a0b49c8	0.00053134235
204	0xbd05533f	-0.032550093
205	0x3d551e92	0.052031107
206	0xbb5eb80e	-0.0033984217
207	0xbd3528a0	-0.044228196
208	0x3ddcab9d	0.1077492
209	0xbd8bfe0d	-0.06835566
210	0xbc8855ef	-0.016642539
211	0xbc13041f	-0.0089731505
212	0x3cf4c7e8	0.029880479
213	0x3d7d6078	0.061859578
214	0xbd5294ee	-0.05141156
215	0x3bf08a66	0.007340717
216	0x3c3eeae8	0.011652686
217	0xbc2acf56	-0.010425409
218	0xbd84e68a	-0.06489284
219	0xbcbd5a42	-0.023114327
220	0xbc878313	-0.016541993
221	0x3d5a2d16	0.053265654
222	0x3d4d515d	0.050126422
223	0x3d70ed5a	0.058820106
224	0x3ca76820	0.020435393
225	0x3aaf7d13	0.0013388715
226	0x3e05946d	0.13044901
227	0xbd9e347e	-0.07724856
228	0xbe7f2990	-0.24918199
229	0xbdc2e815	-0.095169224
230	0x3dc38244	0.095463306
231	0x3e14134d	0.14460488
232	0x3d1e4cc3	0.038647424
233	0x3de3e16f	0.111269824
234	0xbca8086a	-0.020511825
235	0x3d49eca1	0.049297933
236	0x3c987748	0.018611565
237	0xbcf9e62b	-0.03050526
238	0xbcc94151	-0.024567278
239	0x3d9954f3	0.07486906
240	0x3c19dbd1	0.009390787
241	0xbd0abc15	-0.033870775
242	0x3cf65d02	0.030073646
243	0xbd1bd3a5	-0.038043637
244	0xbd221863	-0.03957404
245	0x3d94dadd	0.07268307
246	0xbe95dfaa	-0.29272205
247	0x3caf3373	0.021386838
248	0x3cf5113f	0.02991545
249	0xbe445306	-0.19172296
250	0x3dbf5e34	0.0934414
251	0xbd1f157b	-0.038838845
252	0xbdd5b45b	-0.10434791
253	0x3cbcae80	0.023032427
254	0x3d8b74eb	0.0680941
255	0xbdc21c66	-0.09478073

bias f4 [64]
0	0xbe315e98	-0.17321241
1	0xbe8ba100	-0.2727127
2	0xbdc70fcc	-0.0971981
3	0xbe1bbdd2	-0.1520913
4	0xbe1156ee	-0.14193317
5	0xbd47f8ee	-0.048821382
6	0x3e010d9b	0.12602846
7	0xbdfd171e	-0.12357925
8	0x3f7981a4	0.9746344
9	0xbddcbd11	-0.10778249
10	0xbdfa3b47	-0.122183375
11	0xbdcb84bc	-0.099374264
12	0xbd886b73	-0.06661119
13	0xbdc56ad0	-0.096395135
14	0xbdfe8323	-0.12427356
15	0x3f3b2007	0.73095745
16	0xbe6c9f01	-0.2310753
17	0xbe5460a7	-0.20739995
18	0xbe03991a	-0.12851372
19	0x3d91032f	0.07080685
20	0x3e1d7449	0.1537639
21	0xbb69a666	-0.003565216
22	0xbe3281c6	-0.17432317
23	0xbcbc8852	-0.023014221
24	0x3f4b5aab	0.79435223
25	0xbe1b4c56	-0.15165839
26	0xbe652c4c	-0.22380179
27	0xbd306716	-0.04306706
28	0x3f2496c7	0.6429257
29	0xbc53437a	-0.012894506
30	0xbde2df53	-0.11077752
31	0xbddf5572	-0.10904969
32	0x3f8412df	1.0318259
33	0xbc809af8	-0.015698895
34	0x3b715120	0.0036822036
35	0xbe580fb8	-0.21099746
36	0xbee50482	-0.44730002
37	0xbd66b9f4	-0.056329682
38	0xbdf6beb7	-0.12048095
39	0xbe8a6569	-0.27030495
40	0xbdc8bfb4	-0.098021895
41	0xbd90b5f6	-0.07065956
42	0x3e80cf17	0.25157997
43	0xbe93407a	-0.2876013
44	0xbd4da483	-0.05020572
45	0xbd2cfbd2	-0.042232342
46	0xbc7a6cf8	-0.015284769
47	0xbed432ff	-0.41445157
48	0xbcbb0c69	-0.022833066
49	0xbd3e49fb	-0.046457272
50	0xbd26facf	-0.040766533
51	0xbdf518c9	-0.11967618
52	0xbd684fb6	-0.056716643
53	0xbd401ea5	-0.046904225
54	0xb9cffe4f	-0.0003967159
55	0xbe7b8ffc	-0.24566644
56	0xbe8e9e22	-0.2785502
57	0xbdca888d	-0.09889326
58	0xbddc1943	-0.10747006
59	0xbd7b56b2	-0.061361976
60	0xbdcb44fe	-0.099252686
61	0xbe07046b	-0.13185279
62	0xbe920354	-0.28518164
63	0xbddc015a	-0.10742445

weight f4 [1, 64]
0	0x3dcc71e7	0.09982663
1	0x3b6f5828	0.003652105
2	0x3c0a2cf2	0.008433567
3	0x3caa1e70	0.020766467
4	0x3d6ce2cc	0.057833478
5	0xbe355ce3	-0.17711215
6	0x3e12a7dc	0.14321846
7	0x3d806f21	0.06271196
8	0x3ee61f70	0.4494586
9	0x3c858e36	0.016303163
10	0xbd8b0f1a	-0.0678999
11	0xbce07aa9	-0.027402239
12	0x3b960934	0.004578734
13	0x3c1ce8c3	0.009576979
14	0x3c80591b	0.015667489
15	0x3ee60ae3	0.4493018
16	0xbb82ccf2	-0.0039917165
17	0xb9b455e2	-0.00034396263
18	0xbd02fa06	-0.031976722
19	0xbd90fc1c	-0.07079336
20	0xbe578335	-0.21046145
21	0x3d09470c	0.03351502
22	0x3b2dfda7	0.0026548894
23	0xbb5102e1	-0.0031892585
24	0x3e2b27a0	0.16714334
25	0x3d316dd1	0.04331762
26	0xbe411fbc	-0.18859762
27	0x3a32d27b	0.0006821525
28	0x3f2d5022	0.677004
29	0xbd2dbeb0	-0.042418182
30	0x3c247c44	0.010039393
31	0x3bc5abcd	0.006032443
32	0x3ecf8fa7	0.40539286
33	0xbd9f2490	-0.077706456
34	0x3c27d913	0.010244626
35	0x3dc04ebc	0.093900174
36	0xbc2abd35	-0.010421087
37	0x3c3d981e	0.011571912
38	0xbcd809c0	-0.026371837
39	0x3b939296	0.0045035584
40	0x3d29e780	0.04148054
41	0x3d040995	0.0322357
42	0xbe4a1ee1	-0.19738342
43	0x3a17fd86	0.0005797971
44	0xbbd09220	-0.0063650757
45	0xbbe3f56a	-0.006956746
46	0x3c712467	0.014718152
47	0x3e64131f	0.22272919
48	0xbc9d9951	-0.019238146
49	0xbbeb9f54	-0.0071906243
50	0x3cafd01c	0.021461539
51	0x3cefbdd5	0.029265324
52	0x3be3d8dc	0.006953342
53	0xbdac04a9	-0.08399326
54	0x3c960703	0.01831389
55	0xbd0cf14e	-0.034409814
56	0x3c91f81e	0.017818507
57	0x3d0ece84	0.034864917
58	0xbd728adb	-0.059214454
59	0xbd35a8d5	-0.044350464
60	0xbc548bbf	-0.012972771
61	0x3d551f42	0.052031763
62	0xbe55742b	-0.20845096
63	0xbba2032f	-0.004944227
