Eyantra Task1 my file/task_1a_trained_model.pth (torch, 11000 bytes, 3 tensors)

weight f4 [64, 8]
000000 18 95 8d be c6 a9 67 be 8a 7a 24 3e bd 6b af 3e
       -0.27652812 -0.22623357 0.1606237 0.34261885
000010 68 47 8a bd 49 d1 b2 3e 21 22 82 3e d3 6b ad be
       -0.06751901 0.34925297 0.25416663 -0.33871326
000020 31 60 8c 3e c0 31 eb bb 50 00 19 be 6d 00 98 3e
       0.27417138 -0.0071775615 -0.14941525 0.29687825
000030 48 a0 be 3d 98 ec d3 bd 18 33 2d 3d da 46 17 3e
       0.09307915 -0.10347861 0.042285055 0.14773121
000040 b4 5f 4a be f0 10 b2 bd dc 2d c9 3d 42 dd 20 be
       -0.1976307 -0.08694637 0.098232 -0.15709403
000050 1c 30 8c be 19 f0 b0 3e 80 ee 2e 3c b8 58 5b be
       -0.27380455 0.3455818 0.01067698 -0.21420562
000060 d5 bf 4a 3e 88 5f 55 bb 73 94 c6 3f da 9f a8 bf
       0.1979974 -0.0032558162 1.5514053 -1.3173783
000070 d9 ac 88 3d 39 2f 0c c0 5e b7 ef 3f 4d 78 09 bf
       0.06673593 -2.1903822 1.8727834 -0.5369919
000080 58 5c 81 be 5d 93 ae be 60 a1 ba bd cc c7 62 be
       -0.25265765 -0.34096804 -0.09112811 -0.22146529
000090 08 e5 a8 be f0 9a df bc 29 93 8d 3e 67 9a 05 be
       -0.32987237 -0.02729556 0.27651337 -0.13047181
0000a0 48 b3 f6 3d 63 50 05 be a7 9b 94 3e e0 0d 33 bd
       0.12045914 -0.13018946 0.29025003 -0.043714404
0000b0 80 3a 1f 3d ba 9a 74 be 66 6e 67 3e d4 a5 a7 3d
       0.03887415 -0.23887148 0.22600707 0.08185926
0000c0 9e 83 6f 3e bd b1 0f bc 62 e6 ee 3f 3f 84 b3 bf
       0.23390052 -0.008770403 1.8664057 -1.4024733
0000d0 34 40 cc be 17 20 45 c0 d9 aa 30 40 6d 12 a5 bd
       -0.39892733 -3.0800836 2.7604277 -0.08060155
0000e0 50 b1 57 3d 42 11 90 be 6a 2e 58 3e 70 96 5c bd
       0.052659333 -0.28138167 0.21111456 -0.053854406
0000f0 fa 8b 41 3e 44 5f 9b be 09 a2 b3 3e 70 5d 94 3d
       0.18901053 -0.3034612 0.3508456 0.07244384
000100 80 d7 df bb e4 09 56 be 73 71 00 be e5 19 9a 3e
       -0.0068311095 -0.2090221 -0.12543277 0.3009788
000110 1c e3 0a 3e 8e 40 3b 3e ac 3d 5b be c5 2b ac be
       0.13563198 0.18286344 -0.21410245 -0.33627144
000120 a0 16 b5 3d c2 fe 3d be 54 55 83 be f6 3d 4b 3e
       0.08842206 -0.18554214 -0.25651038 0.19847855
000130 7f 3b 2f be ea 0b 1d be 6e 1c 28 3e 44 17 33 be
       -0.1711254 -0.15336576 0.16417095 -0.17489344
000140 db 03 ab bf 5f b4 5a 3d 1f 67 36 c0 2a 2b d5 3f
       -1.3360552 0.05339467 -2.850044 1.6653798
000150 a2 14 f1 3b 78 b8 7c 40 04 99 80 c0 c1 9f cf bd
       0.007357196 3.948759 -4.0186787 -0.101378925
000160 cb bc e3 be 45 28 60 3b 8d d8 46 bf a0 0b 71 be
       -0.44479975 0.003420369 -0.7767418 -0.23539591
000170 b3 51 80 be e8 38 8e 3e 4c 11 20 bf c5 d3 73 be
       -0.25062332 0.2777779 -0.6252639 -0.23811252
000180 5a dc a3 3e 5e 87 97 bb d3 15 dd 3f fc b3 bc bf
       0.32004052 -0.0046242913 1.7272285 -1.4742427
000190 cc f8 26 bf ce cc 33 c0 96 5b 03 40 2e 6d 01 bd
       -0.65223384 -2.8093753 2.052465 -0.031598262
0001a0 e9 7c 24 bf 91 df 1f 3b ee 69 15 bf 37 78 fa bd
       -0.642531 0.002439473 -0.5836476 -0.122299604
0001b0 02 d8 00 be 36 83 fe 3e ea 9b 0c bf e5 08 07 bf
       -0.125824 0.4970948 -0.54925406 -0.52747947
0001c0 cd a9 98 be 1a ca 6f bd 48 3d ea be a8 4e e8 be
       -0.29817048 -0.05854235 -0.4574988 -0.4537251
0001d0 91 42 ca be 7e ca 5f be a7 c2 26 3e 22 51 45 3e
       -0.3950391 -0.21854588 0.16285191 0.19269231
0001e0 c6 b3 19 bf 99 47 5e 3b 2e 44 45 bf 12 16 94 3d
       -0.6003994 0.0033917187 -0.7705716 0.07230772
0001f0 7c a0 b4 be 19 5a 7f 3f b8 7c 61 bf 51 24 12 be
       -0.3527869 0.99746853 -0.8808093 -0.14271666
000200 de 0d 10 bf 6e 1a 09 bb 68 0e f3 3e ad 08 b8 be
       -0.5627116 -0.0020920294 0.4747193 -0.3594412
000210 24 b6 9e be 05 24 3a bf 4d e9 53 3e 1e 01 10 bf
       -0.30998337 -0.7271121 0.20694466 -0.56251705
000220 41 4a be 3f ee a5 2b 3d 4e b1 36 40 bd 6f e2 bf
       1.486641 0.04190629 2.8545718 -1.769035
000230 93 34 57 be 68 c9 9b c0 2d c7 83 40 f5 0a 29 bf
       -0.21016149 -4.8683357 4.1180634 -0.66032344
000240 a5 e8 79 be 1f df 10 3b 1b 45 28 3f 08 80 87 be
       -0.24405153 0.0022105647 0.65730447 -0.26464868
000250 71 18 9c be c4 74 43 bf 97 11 27 3f 69 16 98 bd
       -0.30487397 -0.76350045 0.65261215 -0.074261494
000260 15 e5 42 bd 6e 5e 31 3b ee 8f f6 be da 91 64 be
       -0.04758175 0.002706434 -0.48156685 -0.22321263
000270 15 d0 e6 be 7b 41 da bd e8 a4 83 bd 81 ef 13 be
       -0.4508063 -0.10657021 -0.06427938 -0.14446832
000280 3d 26 1c bd 13 59 4c 3b 3a f1 36 be 57 7b 6a be
       -0.038122404 0.0031181022 -0.17865458 -0.22898613
000290 5a ad 84 be 9b c3 c1 be ca 96 9e be b1 8a 32 3e
       -0.25913507 -0.37844548 -0.30974418 0.17435719
0002a0 0b 81 b1 3e c0 6b 87 bc c4 46 cf 3d 3c 2c b0 bd
       0.34668764 -0.016530871 0.10120919 -0.08602187
0002b0 04 49 83 be 50 6d 6c be e1 04 ab 3e 40 5f 45 3d
       -0.25641644 -0.23088574 0.3340216 0.04818654
0002c0 c0 7e 26 3d b8 52 a1 be f5 93 96 3e af 42 73 be
       0.040648222 -0.31508422 0.29409757 -0.23755907
0002d0 b8 4d 72 bd b4 39 10 3e b0 7f 21 3d 3a a2 66 3e
       -0.05915615 0.14084512 0.039428413 0.22522822
0002e0 f8 20 96 3d fa ee 97 be b0 ec 12 3e aa c3 a1 be
       0.07330507 -0.29674512 0.14348102 -0.31594592
0002f0 f0 a9 d3 3d 05 ac 9c 3e 20 cb eb 3d ce d4 32 3e
       0.103351474 0.3059999 0.115133524 0.17463991
000300 ab f7 a7 3e ac f5 42 be ad cb ae 3e 3e d8 77 3e
       0.32806143 -0.19039029 0.34139767 0.24203584
000310 e0 eb 21 3d 85 10 26 be dd 25 87 3e d0 56 8c bd
       0.03953159 -0.16217239 0.26396075 -0.06852496
000320 ea a9 1a 3e 6f 18 92 be f3 65 92 3e 70 b4 e0 3c
       0.1510388 -0.28534266 0.28593406 0.02742979
000330 d3 46 2e be d6 23 0c be 18 45 98 3d e0 44 94 3d
       -0.17019205 -0.13685545 0.074350536 0.07239699
000340 61 bd 81 3f e2 90 45 bc 60 00 0d 40 bf bc ca bf
       1.0135919 -0.012058469 2.203148 -1.5838851
000350 c4 23 95 bd 4c 0d 54 c0 73 a4 51 40 10 52 70 bd
       -0.072822124 -3.3133116 3.2756622 -0.05867201
000360 84 d6 9a 3e a0 e0 88 3a 4f b0 5f be 6a c9 a7 bd
       0.30241787 0.001044292 -0.218446 -0.081927136
000370 7e da f8 bd 65 30 58 36 b0 db a1 3d 32 ce e9 3c
       -0.12151049 3.2214678e-06 0.0790323 0.028540704
000380 32 a3 0c 3e 60 82 67 be 69 44 18 be c8 e1 23 3d
       0.13734129 -0.22608328 -0.14869846 0.040010244
000390 15 10 8a 3e 40 1e 19 bd 20 e4 df bc 89 69 88 be
       0.26965395 -0.037382364 -0.027330458 -0.26643017
0003a0 c0 8f 01 be 1a 5c 98 be 3b 89 86 be 88 c6 2e 3d
       -0.12652493 -0.29757768 -0.26276574 0.042669803
0003b0 c0 38 bc bb 4b 0c ad 3e d6 6a 35 3e dc 06 9b 3d
       -0.00574407 0.3379844 0.17716536 0.07569668
0003c0 28 58 45 3d 64 ad bf bd 7b b9 59 be 67 07 09 be
       0.048179775 -0.093592435 -0.21262161 -0.1338173
0003d0 a7 1c 8a 3e ce 94 57 3e 56 3d a8 be cd 6e 27 be
       0.26974985 0.21052858 -0.32859296 -0.16350861
0003e0 37 5e 87 3e 78 7c 5d bd ff b5 6f be d8 4e f0 bd
       0.26439068 -0.05407378 -0.2340927 -0.11733788
0003f0 3a 16 81 be 98 84 4a be bc c6 cf 3d ae 35 d9 bd
       -0.2521227 -0.19777143 0.101453274 -0.10605942

bias f4 [64]
000000 81 80 9e 3e d2 56 3e 3e b0 47 c8 bc 14 73 89 be
       0.30957416 0.18587807 -0.024448246 -0.2684561
000010 80 d3 2e bc ac ee aa be a0 c4 12 bf af 65 8f 3e
       -0.010670543 -0.33385217 -0.57331276 0.28007266
000020 e4 8d 81 3d dc d2 0b be 40 db 41 be 93 20 d3 be
       0.063258916 -0.13654655 -0.18931293 -0.4123579
000030 85 a7 b0 bb 4b bc 42 be 80 98 22 be cd 0c ab be
       -0.0053910636 -0.1901714 -0.15878487 -0.33408204
000040 6e 9b a4 be c1 b6 67 bd 32 36 ac be 2f 78 92 3c
       -0.32149833 -0.056570772 -0.33635098 0.017879574
000050 ca 03 df bd 8e 23 59 3e c0 02 d1 bc d1 86 b0 be
       -0.108893946 0.2120497 -0.025514007 -0.34477857
000060 32 16 5b 3e 6d 5b b1 3e 5c 11 b6 be 52 25 41 3e
       0.21395186 0.34640065 -0.3556012 0.18861893
000070 6f 7a 9f be 0b 34 8d 3e 58 f7 f3 3d 60 7a ac 3c
       -0.31148097 0.27578768 0.119124115 0.021054447
000080 a2 1f 92 be ea d5 2d 3e 1f 35 4f bd 98 2f df bd
       -0.2853976 0.16976133 -0.05058777 -0.1089775
000090 76 d1 4d 3e 85 d5 a5 bc 8d 06 c4 be ef 63 b0 3e
       0.20099434 -0.020243416 -0.38286248 0.34451243
0000a0 57 48 ae 3d 25 58 09 3e ed 7e 67 be 50 f9 95 3d
       0.085098915 0.1341253 -0.22607012 0.07322943
0000b0 e8 1a ab be 78 df 17 be cd 0c 3e be 7e 22 59 be
       -0.33418965 -0.1483134 -0.1855957 -0.21204564
0000c0 c0 e8 e5 3c 2e 52 3b 3e 08 07 25 be 34 f3 87 be
       0.028065085 0.18293068 -0.16115963 -0.26552737
0000d0 81 24 57 be e6 56 06 be 12 dc 23 3e dd a6 60 be
       -0.21010019 -0.13119087 0.16001919 -0.21938653
0000e0 4c 44 14 be a4 36 fe 3d 96 bc 11 3e d6 88 65 be
       -0.14479178 0.124127656 0.14232096 -0.2241548
0000f0 1d cf 19 bf db f9 ab 3e 36 33 6f 3e 94 8c fa bd
       -0.60081655 0.33589062 0.23359379 -0.122338444

weight f4 [1, 64]
000000 82 cd f8 3d dc 48 cd 3d f4 3a 02 bd bc d1 22 3c
       0.121485725 0.100236624 -0.031794503 0.0099377
000010 9c ce d4 3d ea 0a 8c 3d 13 75 48 3c 00 eb 7d bb
       0.1039097 0.06838019 0.012234944 -0.0038744807
000020 24 e5 13 3d 98 6b 3e bd 28 ae 1f bd 40 91 26 b8
       0.036107197 -0.04648933 -0.038984448 -3.971276e-05
000030 78 1f 11 3c ba 5f ee b8 8c b3 83 bd fc cf 76 ba
       0.0088576 -0.00011366555 -0.0643073 -0.00094151474
000040 4d e6 84 3a 98 ea 23 3d 70 d0 e2 3b 46 77 9f b9
       0.0010139436 0.040018648 0.0069218203 -0.0003041571
000050 51 9e c2 b8 a4 99 72 bd bc af df bd 40 b5 05 3b
       -9.2801296e-05 -0.059228554 -0.109221905 0.0020402223
000060 18 0d fa bd e8 87 1e 3d 3d 25 98 3c ce 24 11 3a
       -0.12209529 0.03870383 0.018572444 0.00055367954
000070 98 36 45 bd 92 89 ca 3d 40 39 71 3b 66 3e 88 3d
       -0.048147768 0.09889521 0.0036807805 0.066525266
000080 fa b5 a0 bd 48 57 a6 bc 91 31 df 3b 68 da 50 3d
       -0.07847209 -0.02030529 0.0068113287 0.05098954
000090 d0 74 41 3d 7f 3b 88 bc 9c f4 a4 3c 78 71 f9 3c
       0.04723054 -0.016629932 0.02013617 0.030449614
0000a0 ac 7f 8f 3b 02 25 fd ba 4c 20 52 3d 20 55 33 bd
       0.0043792333 -0.0019313397 0.051300332 -0.043782353
0000b0 c0 02 f6 bb 00 16 39 3d 40 d2 89 3b c8 f7 a9 3c
       -0.007507652 0.045186996 0.004205972 0.020748034
0000c0 44 f8 70 bd c0 01 47 bb 9e 95 f5 bd 90 cf 51 bc
       -0.058830515 -0.0030366033 -0.11991428 -0.012805834
0000d0 91 49 56 bc 7a 6c 86 bb 5c 3f c5 bd 1e b2 b1 b9
       -0.013079063 -0.004102287 -0.096312255 -0.00033892778
0000e0 3c 48 c6 3b e0 ad b9 bb 38 b3 b1 3d f6 c5 87 3d
       0.0060510915 -0.0056664795 0.086767614 0.06629555
0000f0 d9 04 53 bb 9c 8a 14 bd 20 b0 8a 3b b3 17 1a bb
       -0.0032198934 -0.036265 0.0042324215 -0.002351266
